{
  "format": "tflite",
  "version": 3,
  "description": "MLIR Converted.",
  "op_codes": [
    "CONV_2D",
    "MEAN",
    "FULLY_CONNECTED",
    "SOFTMAX"
  ],
  "subgraphs": [
    {
      "name": "main",
      "inputs": [
        0
      ],
      "outputs": [
        15
      ],
      "tensors": [
        {
          "name": "serving_default_input_1:0",
          "type": "INT8",
          "shape": [
            1,
            32,
            32,
            3
          ],
          "shape_sig": [
            -1,
            32,
            32,
            3
          ],
          "is_variable": false,
          "quantization": {
            "scale": [
              1.0
            ],
            "zero_point": [
              -128
            ],
            "quantized_dimension": 0
          },
          "buffer_index": 1,
          "is_weight": false
        },
        {
          "name": "model/global_average_pooling2d/Mean/reduction_indices",
          "type": "INT32",
          "shape": [
            2
          ],
          "shape_sig": null,
          "is_variable": false,
          "quantization": {
            "scale": [],
            "zero_point": [],
            "quantized_dimension": 0
          },
          "buffer_index": 2,
          "is_weight": true
        },
        {
          "name": "model/activation/Relu;model/batch_normalization/FusedBatchNormV3;conv2d/bias;model/conv2d/BiasAdd;model/conv2d/Conv2D1",
          "type": "INT8",
          "shape": [
            16,
            3,
            3,
            3
          ],
          "shape_sig": null,
          "is_variable": false,
          "quantization": {
            "scale": [
              … "zero_point": [
              0,
              0,
              0,
              0,
              0,
              0,
              0,
              0,
              0,
              0,
              0,
              0,
              0,
              0,
              0,
              0
            ],
            "quantized_dimension": 0
          },
          "buffer_index": 3,
          "is_weight": true
        },
        {
          "name": "model/activation/Relu;model/batch_normalization/FusedBatchNormV3;conv2d/bias;model/conv2d/BiasAdd;model/conv2d/Conv2D",
          "type": "INT32",
          "shape": [
            16
          ],
          "shape_sig": null,
          "is_variable": false,
          "quantization": {
            "scale": [
              … "zero_point": [
              0,
              0,
              0,
              0,
              0,
              0,
              0,
              0,
              0,
              0,
              0,
              0,
              0,
              0,
              0,
              0
            ],
            "quantized_dimension": 0
          },
          "buffer_index": 4,
          "is_weight": true
        },
        {
          "name": "model/conv2d_1/Conv2D",
          "type": "INT8",
          "shape": [
            32,
            3,
            3,
            16
          ],
          "shape_sig": null,
          "is_variable": false,
          "quantization": {
            "scale": [
              … "zero_point": [
              0,
              0,
              0,
              0,
              0,
              0,
              0,
              0,
              0,
              0,
              0,
              0,
              0,
              0,
              0,
              0,
              0,
              0,
              0,
              0,
              0,
              0,
              0,
              0,
              0,
              0,
              0,
              0,
              0,
              0,
              0,
              0
            ],
            "quantized_dimension": 0
          },
          "buffer_index": 5,
          "is_weight": true
        },
        {
          "name": "model/activation_1/Relu;model/batch_normalization_1/FusedBatchNormV3;conv2d_1/bias;model/conv2d_1/BiasAdd;model/conv2d_1/Conv2D",
          "type": "INT32",
          "shape": [
            32
          ],
          "shape_sig": null,
          "is_variable": false,
          "quantization": {
            "scale": [
              … "zero_point": [
              0,
              0,
              0,
              0,
              0,
              0,
              0,
              0,
              0,
              0,
              0,
              0,
              0,
              0,
              0,
              0,
              0,
              0,
              0,
              0,
              0,
              0,
              0,
              0,
              0,
              0,
              0,
              0,
              0,
              0,
              0,
              0
            ],
            "quantized_dimension": 0
          },
          "buffer_index": 6,
          "is_weight": true
        },
        {
          "name": "model/conv2d_2/Conv2D",
          "type": "INT8",
          "shape": [
            64,
            3,
            3,
            32
          ],
          "shape_sig": null,
          "is_variable": false,
          "quantization": {
            "scale": [
              … "zero_point": [
              0,
              0,
              0,
              0,
              0,
              0,
              0,
              0,
              0,
              0,
              0,
              0,
              0,
              0,
              0,
              0,
              0,
              0,
              0,
              0,
              0,
              0,
              0,
              0,
              0,
              0,
              0,
              0,
              0,
              0,
              0,
              0,
              0,
              0,
              0,
              0,
              0,
              0,
              0,
              0,
              0,
              0,
              0,
              0,
              0,
              0,
              0,
              0,
              0,
              0,
              0,
              0,
              0,
              0,
              0,
              0,
              0,
              0,
              0,
              0,
              0,
              0,
              0,
              0
            ],
            "quantized_dimension": 0
          },
          "buffer_index": 7,
          "is_weight": true
        },
        {
          "name": "model/activation_2/Relu;model/batch_normalization_2/FusedBatchNormV3;conv2d_2/bias;model/conv2d_2/BiasAdd;model/conv2d_2/Conv2D",
          "type": "INT32",
          "shape": [
            64
          ],
          "shape_sig": null,
          "is_variable": false,
          "quantization": {
            "scale": [
              … "zero_point": [
              0,
              0,
              0,
              0,
              0,
              0,
              0,
              0,
              0,
              0,
              0,
              0,
              0,
              0,
              0,
              0,
              0,
              0,
              0,
              0,
              0,
              0,
              0,
              0,
              0,
              0,
              0,
              0,
              0,
              0,
              0,
              0,
              0,
              0,
              0,
              0,
              0,
              0,
              0,
              0,
              0,
              0,
              0,
              0,
              0,
              0,
              0,
              0,
              0,
              0,
              0,
              0,
              0,
              0,
              0,
              0,
              0,
              0,
              0,
              0,
              0,
              0,
              0,
              0
            ],
            "quantized_dimension": 0
          },
          "buffer_index": 8,
          "is_weight": true
        },
        {
          "name": "model/dense/MatMul",
          "type": "INT8",
          "shape": [
            10,
            64
          ],
          "shape_sig": null,
          "is_variable": false,
          "quantization": {
            "scale": [
              0.011593032628297806
            ],
            "zero_point": [
              0
            ],
            "quantized_dimension": 0
          },
          "buffer_index": 9,
          "is_weight": true
        },
        {
          "name": "dense/bias",
          "type": "INT32",
          "shape": [
            10
          ],
          "shape_sig": null,
          "is_variable": false,
          "quantization": {
            "scale": [
              0.00010809163359226659
            ],
            "zero_point": [
              0
            ],
            "quantized_dimension": 0
          },
          "buffer_index": 10,
          "is_weight": true
        },
        {
          "name": "model/activation/Relu;model/batch_normalization/FusedBatchNormV3;conv2d/bias;model/conv2d/BiasAdd;model/conv2d/Conv2D2",
          "type": "INT8",
          "shape": [
            1,
            16,
            16,
            16
          ],
          "shape_sig": [
            -1,
            16,
            16,
            16
          ],
          "is_variable": false,
          "quantization": {
            "scale": [
              0.0536358617246151
            ],
            "zero_point": [
              -128
            ],
            "quantized_dimension": 0
          },
          "buffer_index": 11,
          "is_weight": false
        },
        {
          "name": "model/activation_1/Relu;model/batch_normalization_1/FusedBatchNormV3;conv2d_1/bias;model/conv2d_1/BiasAdd;model/conv2d_1/Conv2D1",
          "type": "INT8",
          "shape": [
            1,
            8,
            8,
            32
          ],
          "shape_sig": [
            -1,
            8,
            8,
            32
          ],
          "is_variable": false,
          "quantization": {
            "scale": [
              0.01006293948739767
            ],
            "zero_point": [
              -128
            ],
            "quantized_dimension": 0
          },
          "buffer_index": 12,
          "is_weight": false
        },
        {
          "name": "model/activation_2/Relu;model/batch_normalization_2/FusedBatchNormV3;conv2d_2/bias;model/conv2d_2/BiasAdd;model/conv2d_2/Conv2D1",
          "type": "INT8",
          "shape": [
            1,
            4,
            4,
            64
          ],
          "shape_sig": [
            -1,
            4,
            4,
            64
          ],
          "is_variable": false,
          "quantization": {
            "scale": [
              0.05079137906432152
            ],
            "zero_point": [
              -128
            ],
            "quantized_dimension": 0
          },
          "buffer_index": 13,
          "is_weight": false
        },
        {
          "name": "model/global_average_pooling2d/Mean",
          "type": "INT8",
          "shape": [
            1,
            64
          ],
          "shape_sig": [
            -1,
            64
          ],
          "is_variable": false,
          "quantization": {
            "scale": [
              0.00932384468615055
            ],
            "zero_point": [
              -128
            ],
            "quantized_dimension": 0
          },
          "buffer_index": 14,
          "is_weight": false
        },
        {
          "name": "model/dense/MatMul;model/dense/BiasAdd",
          "type": "INT8",
          "shape": [
            1,
            10
          ],
          "shape_sig": [
            -1,
            10
          ],
          "is_variable": false,
          "quantization": {
            "scale": [
              0.11232580244541168
            ],
            "zero_point": [
              58
            ],
            "quantized_dimension": 0
          },
          "buffer_index": 15,
          "is_weight": false
        },
        {
          "name": "StatefulPartitionedCall:0",
          "type": "INT8",
          "shape": [
            1,
            10
          ],
          "shape_sig": [
            -1,
            10
          ],
          "is_variable": false,
          "quantization": {
            "scale": [
              0.00390625
            ],
            "zero_point": [
              -128
            ],
            "quantized_dimension": 0
          },
          "buffer_index": 16,
          "is_weight": false
        }
      ],
      "operators": [
        {
          "op": "CONV_2D",
          "inputs": [
            0,
            2,
            3
          ],
          "outputs": [
            10
          ]
        },
        {
          "op": "CONV_2D",
          "inputs": [
            10,
            4,
            5
          ],
          "outputs": [
            11
          ]
        },
        {
          "op": "CONV_2D",
          "inputs": [
            11,
            6,
            7
          ],
          "outputs": [
            12
          ]
        },
        {
          "op": "MEAN",
          "inputs": [
            12,
            1
          ],
          "outputs": [
            13
          ]
        },
        {
          "op": "FULLY_CONNECTED",
          "inputs": [
            13,
            8,
            9
          ],
          "outputs": [
            14
          ]
        },
        {
          "op": "SOFTMAX",
          "inputs": [
            14
          ],
          "outputs": [
            15
          ]
        }
      ]
    }
  ],
  "weightsManifest": [
    {
      "paths": [
        "weights.bin"
      ],
      "weights": [
        {
          "name": "model/global_average_pooling2d/Mean/reduction_indices",
          "dtype": "int32",
          "shape": [
            2
          ],
          "byteOffset": 0,
          "byteLength": 8
        },
        {
          "name": "model/activation/Relu;model/batch_normalization/FusedBatchNormV3;conv2d/bias;model/conv2d/BiasAdd;model/conv2d/Conv2D1",
          "dtype": "int8",
          "shape": [
            16,
            3,
            3,
            3
          ],
          "byteOffset": 8,
          "byteLength": 432
        },
        {
          "name": "model/activation/Relu;model/batch_normalization/FusedBatchNormV3;conv2d/bias;model/conv2d/BiasAdd;model/conv2d/Conv2D",
          "dtype": "int32",
          "shape": [
            16
          ],
          "byteOffset": 440,
          "byteLength": 64
        },
        {
          "name": "model/conv2d_1/Conv2D",
          "dtype": "int8",
          "shape": [
            32,
            3,
            3,
            16
          ],
          "byteOffset": 504,
          "byteLength": 4608
        },
        {
          "name": "model/activation_1/Relu;model/batch_normalization_1/FusedBatchNormV3;conv2d_1/bias;model/conv2d_1/BiasAdd;model/conv2d_1/Conv2D",
          "dtype": "int32",
          "shape": [
            32
          ],
          "byteOffset": 5112,
          "byteLength": 128
        },
        {
          "name": "model/conv2d_2/Conv2D",
          "dtype": "int8",
          "shape": [
            64,
            3,
            3,
            32
          ],
          "byteOffset": 5240,
          "byteLength": 18432
        },
        {
          "name": "model/activation_2/Relu;model/batch_normalization_2/FusedBatchNormV3;conv2d_2/bias;model/conv2d_2/BiasAdd;model/conv2d_2/Conv2D",
          "dtype": "int32",
          "shape": [
            64
          ],
          "byteOffset": 23672,
          "byteLength": 256
        },
        {
          "name": "model/dense/MatMul",
          "dtype": "int8",
          "shape": [
            10,
            64
          ],
          "byteOffset": 23928,
          "byteLength": 640
        },
        {
          "name": "dense/bias",
          "dtype": "int32",
          "shape": [
            10
          ],
          "byteOffset": 24568,
          "byteLength": 40
        }
      ]
    }
  ]
}